backend: !!python/unicode 'tensorflow'
class_name: Sequential
config:
- class_name: Conv2D
  config:
    activation: linear
    activity_regularizer: null
    batch_input_shape: !!python/tuple [null, 84, 84, 4]
    bias_constraint: null
    bias_initializer:
      class_name: VarianceScaling
      config: {distribution: uniform, mode: fan_avg, scale: 1.0, seed: null}
    bias_regularizer: null
    data_format: channels_last
    dilation_rate: &id001 !!python/tuple [1, 1]
    dtype: float32
    filters: 32
    kernel_constraint: null
    kernel_initializer:
      class_name: VarianceScaling
      config: {distribution: uniform, mode: fan_avg, scale: 1.0, seed: null}
    kernel_regularizer: null
    kernel_size: !!python/tuple [8, 8]
    name: conv2d_4
    padding: same
    strides: !!python/tuple [4, 4]
    trainable: true
    use_bias: true
- class_name: Activation
  config: {activation: relu, name: activation_5, trainable: true}
- class_name: Conv2D
  config:
    activation: linear
    activity_regularizer: null
    bias_constraint: null
    bias_initializer:
      class_name: VarianceScaling
      config: {distribution: uniform, mode: fan_avg, scale: 1.0, seed: null}
    bias_regularizer: null
    data_format: channels_last
    dilation_rate: *id001
    filters: 64
    kernel_constraint: null
    kernel_initializer:
      class_name: VarianceScaling
      config: {distribution: uniform, mode: fan_avg, scale: 1.0, seed: null}
    kernel_regularizer: null
    kernel_size: !!python/tuple [4, 4]
    name: conv2d_5
    padding: same
    strides: !!python/tuple [2, 2]
    trainable: true
    use_bias: true
- class_name: Activation
  config: {activation: relu, name: activation_6, trainable: true}
- class_name: Conv2D
  config:
    activation: linear
    activity_regularizer: null
    bias_constraint: null
    bias_initializer:
      class_name: VarianceScaling
      config: {distribution: uniform, mode: fan_avg, scale: 1.0, seed: null}
    bias_regularizer: null
    data_format: channels_last
    dilation_rate: *id001
    filters: 64
    kernel_constraint: null
    kernel_initializer:
      class_name: VarianceScaling
      config: {distribution: uniform, mode: fan_avg, scale: 1.0, seed: null}
    kernel_regularizer: null
    kernel_size: !!python/tuple [3, 3]
    name: conv2d_6
    padding: same
    strides: !!python/tuple [1, 1]
    trainable: true
    use_bias: true
- class_name: Activation
  config: {activation: relu, name: activation_7, trainable: true}
- class_name: Flatten
  config: {name: flatten_2, trainable: true}
- class_name: Dense
  config:
    activation: linear
    activity_regularizer: null
    bias_constraint: null
    bias_initializer:
      class_name: VarianceScaling
      config: {distribution: uniform, mode: fan_avg, scale: 1.0, seed: null}
    bias_regularizer: null
    kernel_constraint: null
    kernel_initializer:
      class_name: VarianceScaling
      config: {distribution: uniform, mode: fan_avg, scale: 1.0, seed: null}
    kernel_regularizer: null
    name: dense_3
    trainable: true
    units: 512
    use_bias: true
- class_name: Activation
  config: {activation: relu, name: activation_8, trainable: true}
- class_name: Dense
  config:
    activation: linear
    activity_regularizer: null
    bias_constraint: null
    bias_initializer:
      class_name: VarianceScaling
      config: {distribution: uniform, mode: fan_avg, scale: 1.0, seed: null}
    bias_regularizer: null
    kernel_constraint: null
    kernel_initializer:
      class_name: VarianceScaling
      config: {distribution: uniform, mode: fan_avg, scale: 1.0, seed: null}
    kernel_regularizer: null
    name: dense_4
    trainable: true
    units: 6
    use_bias: true
keras_version: 2.0.0
